PPO/PPO_preTrained/BipedalWalker-v3/PPO_BipedalWalker-v3_0_0.pth (torch, 52226 bytes, 11 tensors)

actor.0.weight f4 [64, 24]
-0.45357412 1.032094 -0.19946334 -0.06984744 0.14714788 0.14088592 0.14114794 -0.24376744
0.18990646 0.029933982 -0.7158169 -0.32697585 0.6045415 0.27778172 0.065356806 0.27204967
0.054323547 -0.119751155 0.16414917 0.04103863 -0.013644822 0.2356154 -0.07376205 -0.049837697
-0.20472506 0.38844296 -0.09920909 -0.32020387 0.1429692 0.26880231 0.24289492 0.37526432
0.055145055 0.0646626 -0.013600791 0.3833895 -0.0676346 -0.026394472 -0.12644185 0.24980754
0.074447826 -0.094113566 -0.045945223 0.002444771 0.034220997 0.22264393 0.038732573 -0.12899625
-0.43285164 0.35434604 0.32078075 -0.06506177 0.09176363 -0.19884571 0.37244198 0.44588944
-0.19351743 -0.02893716 0.034058392 -0.7296637 -0.5884717 0.5255736 -0.111498795 0.0783161
-0.16433224 0.105829366 0.10968191 -0.13746722 -0.0781333 0.022406815 -0.05086793 -0.13955209
0.35983396 0.11431908 0.23997658 -0.1065891 0.0914878 -0.29308546 -0.3501254 -0.04931975
-0.50913185 0.40730143 -0.3926408 0.03862301 -0.093566105 0.10064116 0.0038303055 -0.12718822
-0.09271889 0.19908708 0.015099803 0.06761418 -0.08525114 -0.0019198812 0.037934586 -0.002500794
0.17559057 -0.5169886 0.13126999 0.2024786 0.1018267 0.61325204 -0.13200718 -0.41188386
-0.23074892 0.04511697 0.14815566 -0.05705608 0.28998336 -0.04976475 -0.03297389 -0.044327304
0.25379914 0.12890616 -0.13630983 -0.11875514 0.18195605 0.020075656 -0.029867662 0.15873311
0.00061598286 -0.6669131 0.02967455 -0.32670188 0.1708774 -0.41111752 -0.12794393 0.074733414
-0.053171232 -0.25857863 0.04755345 -0.4044356 0.22653887 0.14643812 -0.13340425 0.06391754
-0.022165881 -0.16242476 -0.21516871 -0.19436237 0.15700217 -0.12781586 -0.046830684 0.13589105
0.17816006 -0.6385404 0.12723358 0.11931374 -0.055372532 0.094457105 -0.30498955 -0.1310688
-0.28567278 -0.18833828 -0.3953439 -0.08949499 0.41769075 0.076887175 0.16946444 -0.19515152
0.12939776 0.18971956 -0.19123495 -0.010186229 -0.180819 0.15668783 -0.12168337 0.15531522
-0.34782645 -0.18592982 -0.13874383 -0.5385619 0.27651235 -0.19857402 0.18167569 0.1833073
-0.032917198 -0.10303537 0.07344764 -0.38144663 0.4877554 0.3510003 -0.26379716 0.044421956
0.03876425 -0.15150721 -0.13905716 -0.05194852 -0.03576078 -0.085406356 -0.14198273 0.074525505
0.46300745 0.12402413 0.23087095 0.38593566 -0.11915243 -0.21252544 0.20940031 0.359884
-0.18213901 -0.2373602 -0.19820385 0.2305729 0.30724958 -0.41092056 -0.004407597 -0.17801818
0.17399281 -0.055231083 -0.02912163 -0.16092937 -0.0012464842 0.025438558 -0.009119085 0.027470091
0.2765436 0.2606499 -0.39925158 0.09866164 -0.250651 0.31986454 0.22689225 -0.16015871
-0.080022365 0.2735706 0.3263195 -0.050385863 -0.16333207 -0.28317228 0.078645505 -0.07118319
0.073793545 0.05358251 0.16983126 0.12258308 0.11349992 0.056041025 -0.024346968 0.00855229
0.23309568 -0.012066928 -0.04192492 -0.055621415 -0.16569439 -0.30696842 0.17139105 -0.16118649
-0.23108384 0.1004394 -0.646074 0.0025625378 -0.11140932 0.35829854 0.20916203 0.07387835
00000000: de3a e8be a81b 843f 1e40 4cbe 2d0c 8fbd
00000010: efad 163e 6644 103e 1689 103e 2c9e 79be
00000020: d776 423e 1c38 f53c c73f 37bf 6169 a7be
00000030: 3bc3 1a3f 6839 8e3e cad9 853d 184a 8b3e
00000040: 5e82 5e3d 1840 f5bd b816 283e 1f18 283d
00000050: 888e 5fbc 2a45 713e 8f10 97bd 9d22 4cbd
00000060: 72a3 51be ffe1 c63e 232e cbbd c3f1 a3be
00000070: 8566 123e 75a0 893e 72b9 783e a522 c03e
00000080: c8df 613d d36d 843d dad5 5ebc a14b c43e
00000090: 0284 8abd 3839 d8bc f979 01be 8ccd 7f3e
000000a0: 1a78 983d 9dbe c0bd 0f31 3cbd 7338 203b
000000b0: 512b 0c3d c5fc 633e 0ca6 1e3d 9817 04be
000000c0: bb9e ddbe d86c b53e 603d a43e 1b3f 85bd
000000d0: 92ee bb3d 369e 4bbe b7b0 be3e 9f4b e43e
000000e0: 6f29 46be 9f0d edbc d080 0b3d 3ecb 3abf
000000f0: 15a6 16bf fe8b 063f 7b59 e4bd 3164 a03d
00000100: b646 28be 11bd d83d e9a0 e03d 35c4 0cbe
00000110: 5a04 a0bd 7f8e b73c e45a 50bd bee6 0ebe
00000120: 283c b83e 1f20 ea3d 6cbc 753e 634b dabd
00000130: f55d bb3d 4c0f 96be a343 b3be 8203 4abd
00000140: 7756 02bf d089 d03e 3708 c9be 2933 1e3d
00000150: 969f bfbd f41c ce3d dd05 7b3b a13d 02be
00000160: 67e3 bdbd 7cdd 4b3e 2a65 773c 4e79 8a3d
00000170: 2698 aebd 86a4 fbba 4c61 1b3d 5ce4 23bb
00000180: 04ce 333e 5d59 04bf a46b 063e 8d56 4f3e
00000190: 848a d03d 16fe 1c3f e42c 07be 71e2 d2be
000001a0: 7249 6cbe 92cc 383d 1eb6 173e a3b3 69bd
000001b0: b378 943e 1fd6 4bbd a10f 07bd 8c90 35bd
000001c0: f6f1 813e faff 033e ce94 0bbe e535 f3bd
000001d0: b052 3a3e b475 a43c 07ad f4bc ef8a 223e
000001e0: e979 213a d1ba 2abf 0b18 f33c 7845 a7be
000001f0: 7cfa 2e3e ff7d d2be bc03 03be d50d 993d
00000200: 14ca 59bd 6b64 84be 68c7 423d 2f12 cfbe
00000210: cef9 673e e0f3 153e 209b 08be 33e7 823d
00000220: 3995 b5bc ad52 26be 3055 5cbe ee06 47be
00000230: 2dc5 203e 29e2 02be 88d1 3fbd 0627 0b3e
00000240: 976f 363e 6277 23bf 8549 023e c35a f43d
00000250: 4fce 62bd ba72 c13d 9727 9cbe e636 06be
00000260: b443 92be c0db 40be 846a cabe 2649 b7bd
00000270: 90db d53e 0677 9d3d 1688 2d3e cdd5 47be
00000280: d980 043e d845 423e 18d3 43be 24e4 26bc
00000290: 9e28 39be c672 203e 2135 f9bd f40a 1f3e
000002a0: 4f16 b2be 6364 3ebe dd12 0ebe 31df 09bf
000002b0: 0793 8d3e fd56 4bbe 3109 3a3e e9b4 3b3e
000002c0: 2fd4 06bd 3504 d3bd b76b 963d f94c c3be
000002d0: 13bb f93e 50b6 b33e 6c10 87be ccf3 353d
000002e0: 43c7 1e3d b524 1bbe 0065 0ebe f9c7 54bd
000002f0: e579 12bd 87e9 aebd ec63 11be d4a0 983d
00000300: 500f ed3e 5d00 fe3d 6f69 6c3e 5c99 c53e
00000310: 3006 f4bd 45a0 59be 096d 563e b742 b83e
00000320: a682 3abe 8d0e 73be f3f5 4abe 4d1b 6c3e
00000330: d14f 9d3e 2e64 d2be 9a6d 90bb 664a 36be
00000340: 2c2b 323e fd39 62bd 7c90 eebc abca 24be
00000350: 1261 a3ba 8664 d03c 3768 15bc f508 e13c
00000360: 1f97 8d3e e773 853e b46a ccbe 1d0f ca3d
00000370: 5455 80be 49c5 a33e 7156 683e a500 24be
00000380: c4e2 a3bd 7211 8c3e 5913 a73e 6861 4ebd
00000390: 8640 27be f5fb 90be e510 a13d 7ec8 91bd
000003a0: 1221 973d 5679 5b3d 3fe8 2d3e d60c fb3d
000003b0: a572 e83d 468b 653d 4b73 c7bc e71e 0c3c
000003c0: a2b0 6e3e 5db4 45bc 77b9 2bbd 48d3 63bd
000003d0: caab 29be f72a 9dbe 2381 2f3e 120e 25be
000003e0: 3ea1 6cbe 2cb3 cd3d 1b65 25bf 40f0 273b
000003f0: 922a e4bd e872 b73e 922e 563e 884d 973d

actor.0.bias f4 [64]
-0.05939227 -0.22034888 -0.18785861 0.006136102 0.20749964 0.2509034 0.11099907 0.03169837
-0.19944404 -0.26825437 0.13257883 -0.018365618 -0.25170642 0.11337485 0.095860794 0.12210388
0.14916809 -0.24976303 0.120947376 0.09375143 -0.1033395 -0.0017012318 0.116505936 0.0044007963
0.09298016 0.09857438 0.16991994 -0.13923374 -0.055395547 0.16495344 -0.051363345 0.20533821
-0.13576896 0.07291739 0.052637126 -0.028967822 0.23140648 0.14074099 0.2548562 -0.25531617
-0.011382939 -0.13907814 -0.19216114 0.26566344 0.25925493 -0.23889957 -0.12100933 0.13367978
0.09656541 -0.19718736 -0.27535418 0.06616153 0.055127885 0.015884077 -0.009306908 0.0873809
-0.029189736 -0.055297527 0.24740872 0.015628532 0.049056124 -0.24462982 0.060430422 -0.020710105
00000000: 4f45 73bd 23a3 61be 025e 40be 5b11 c93b
00000010: c97a 543e 6976 803e 7b53 e33d 26d6 013d
00000020: 0f3b 4cbe a358 89be bfc2 073e 7e73 96bc
00000030: aadf 80be 1331 e83d aa52 c43d 9911 fa3d
00000040: 85bf 183e e1c1 7fbe 42b3 f73d c000 c03d
00000050: a9a3 d3bd defb deba aa9a ee3d 8e34 903b
00000060: 626c be3d 5de1 c93d 7eff 2d3e 4a93 0ebe
00000070: 71e6 62bd 8ee9 283e 5f62 52bd 2e44 523e
00000080: 0507 0bbe b655 953d 079a 573d ed4d edbc
00000090: d2f5 6c3e 681e 103e 837c 823e cdb8 82be
000000a0: 827f 3abc 806a 0ebe e4c5 44be 0a05 883e
000000b0: 10bd 843e 17a2 74be bdd3 f7bd 5ae3 083e
000000c0: 16c4 c53d 7ceb 49be 39fb 8cbe b27f 873d
000000d0: c7cd 613d 531f 823c 007c 18bc c2f4 b23d
000000e0: 501f efbc a97f 62bd b658 7d3e 6807 803c
000000f0: 13ef 483d 3d80 7abe e485 773d 3da8 a9bc

actor.2.weight f4 [64, 64]
0.34846157 -0.18594752 0.23879196 0.028085215 -0.109791145 -0.08436647 -0.15015776 0.07722946
-0.8579476 0.090660594 0.21803017 -0.10876981 0.13439612 0.038250186 0.21061052 -0.105153106
0.31469473 -0.2793945 -0.49731776 0.123356566 -0.27072245 0.026741054 0.29549655 -0.27533758
-0.36726025 0.40367565 0.044769093 -0.36115965 -0.19049475 0.16614695 -0.23694575 0.047725607
0.2304271 -0.06358131 0.25919816 -0.022595055 0.12328885 0.16716495 -0.47179347 -0.10968054
0.4372551 0.34784365 0.49708986 -0.22552207 0.09230756 0.6651365 0.16296434 0.11352842
0.1994402 -0.1425591 -0.043727946 0.00021812301 -0.31797504 0.458957 0.27777547 -0.030625263
-0.16710679 -0.1792583 -0.009105502 -0.17875253 -0.33515632 0.12902144 -0.17888948 0.1875959
0.026525766 0.127119 0.041988824 -0.49006483 -0.00074832625 0.03396302 -0.0715644 0.1630341
-0.030330276 0.09982321 -0.14211603 -0.23542008 -0.0879946 0.16881523 0.0022601371 0.036113024
-0.04816617 -0.08005949 -0.29982674 0.0956155 -0.1954131 -0.015590935 -0.34304106 0.10573319
-0.124769196 -0.13900255 0.28327695 -0.08978083 -0.2950576 0.53597695 0.029626733 -0.19480623
0.2443321 0.17002793 0.58398795 -0.0041004084 -0.09675288 0.04657718 0.13137847 -0.1740709
0.18210901 -0.04496027 -0.107384466 0.51626796 0.08912758 0.044310283 -0.20754267 0.21844405
-0.118800044 -0.043032188 -0.30134234 0.039441776 -0.058307964 0.25659508 0.12111972 -0.11462675
-0.056407206 0.107520215 -0.26086703 0.005453713 0.16458057 -0.18312824 0.20499392 0.28167835
-0.103102684 -0.18170743 0.0013537568 -0.0004551225 0.07442811 0.0419781 -0.04505709 -0.046710394
-0.11034802 0.3004331 0.030076034 -0.13182302 0.0041292016 0.13773192 0.09097082 0.35682347
0.06431139 0.0909099 0.093886025 -0.113375984 -0.041574005 -0.30503693 0.3400841 0.33105153
-0.17688501 0.3229756 0.15600853 -0.14398628 -0.14300638 0.093292415 0.11873033 -0.0033159
0.23623948 -0.14545228 0.1327331 -0.10757102 0.15912801 0.17996834 0.048072048 -0.12821007
0.13552922 0.12088547 0.19768943 0.08167985 0.07437177 -0.07010451 -0.13952656 0.11127597
-0.048000082 -0.31389582 -0.035669334 0.009070214 -0.13119598 0.12316413 0.2315044 -0.19930744
0.066031955 -0.13653265 -0.23202674 0.16776493 -0.1859195 -0.088595584 0.22403973 0.11516777
0.088705 0.13359462 -0.0018938571 -0.2533519 -0.30338308 0.042448122 -0.17125477 0.1443487
0.073802836 -0.031008005 0.07872465 0.23037578 -0.013774859 -0.0063482383 -0.193615 -0.06430114
-0.1402825 0.09032638 -0.14572905 0.22467245 0.07386218 0.35573238 -0.041413255 0.010720007
0.10093566 -0.08747855 -0.04300109 0.010081569 0.11747474 -0.0806439 0.046644952 0.022394799
-0.07636334 0.014518851 0.08921166 0.0710845 0.030315425 0.039235137 0.13968796 0.042883042
0.16262399 0.045827 -0.20690373 0.050609417 0.0018192267 0.15659675 -0.11148612 0.0059969546
0.0027898634 0.09331348 -0.0669854 -0.07328688 0.05126491 -0.10008632 -0.07871558 -0.09192589
0.030369977 0.21926159 0.08979149 -0.0071547707 -0.07472004 0.20326227 -0.1451967 0.03957138
00000000: 8e69 b23e 0769 3ebe e185 743e f712 e63c
00000010: 2eda e0bd 54c8 acbd f5c2 19be 7b2a 9e3d
00000020: 74a2 5bbf 43ac b93d 4d43 5f3e b5c2 debd
00000030: 239f 093e 3aac 1c3d 49aa 573e 835a d7bd
00000040: ab1f a13e cc0c 8fbe 6fa0 febe 5ea2 fc3d
00000050: 229c 8abe 0e10 db3c 534b 973e 0cf9 8cbe
00000060: 8909 bcbe 93ae ce3e cc5f 373d ebe9 b8be
00000070: 0e11 43be 6d22 2a3e e8a1 72be ed7b 433d
00000080: 15f5 6b3e eb36 82bd 9fb5 843e 4419 b9bc
00000090: dd7e fc3d 4a2d 2b3e ea8e f1be 31a0 e0bd
000000a0: e7df df3e 9018 b23e 9082 fe3e 42ef 66be
000000b0: bf0b bd3d 6346 2a3f 20e0 263e 9781 e83d
000000c0: 0d3a 4c3e 03fb 11be 131c 33bd f3b7 6439
000000d0: a0cd a2be 69fc ea3e 9638 8e3e d5e1 fabc
000000e0: 0b1e 2bbe 7d8f 37be 3e2f 15bc e70a 37be
000000f0: 9c99 abbe 321e 043e ce2e 37be 2419 403e
00000100: 904c d93c 7c2b 023e 79fc 2b3d c7e9 fabe
00000110: 532b 44ba cf1c 0b3d 5b90 92bd 69f2 263e
00000120: 3377 f8bc 1c70 cc3d dd86 11be f611 71be
00000130: 8336 b4bd e6dd 2c3e cf1e 143b 40eb 133d
00000140: e449 45bd 3bf6 a3bd e482 99be 0fd2 c33d
00000150: 5f1a 48be 1f71 7fbc 14a3 afbe a58a d83d
00000160: fe86 ffbd af56 0ebe ad09 913e 03df b7bd
00000170: ca11 97be c935 093f c3b3 f23c 497b 47be
00000180: 3232 7a3e cd1b 2e3e 3c80 153f b85c 86bb
00000190: 6026 c6bd b7c7 3e3d 1488 063e a43f 32be
000001a0: c97a 3a3e 4328 38bd 63ec dbbd 232a 043f
000001b0: 8588 b63d b37e 353d 1186 54be ccaf 5f3e
000001c0: 704d f3bd 8542 30bd 8b49 9abe b38d 213d
000001d0: 55d4 6ebd 6e60 833e 9e0d f83d 6ec1 eabd
000001e0: 3e0b 67bd 8f33 dc3d 5d90 85be 0fb5 b23b
000001f0: cf87 283e f885 3bbe ede9 513e 2538 903e
00000200: 8027 d3bd 8311 3abe 8a70 b13a 829d eeb9
00000210: c46d 983d 3af1 2b3d c98d 38bd 6653 3fbd
00000220: 25fe e1bd 5ed2 993e 0462 f63c 9dfc 06be
00000230: 414e 873b 9909 0d3e e94e ba3d 91b1 b63e
00000240: b1b5 833d f82e ba3d 5147 c03d ab31 e8bd
00000250: 8149 2abd cd2d 9cbe 811f ae3e 967f a93e
00000260: 5821 35be 0f5d a53e b3c0 1f3e 2471 13be
00000270: 4470 12be 1810 bf3d e328 f33d 924f 59bb
00000280: c3e8 713e 71f1 14be 30eb 073e 324e dcbd
00000290: 74f2 223e 9f49 383e 32e7 443d 8049 03be
000002a0: 2cc8 0a3e cd92 f73d 196f 4a3e c447 a73d
000002b0: 3a50 983d f492 8fbd 0de0 0ebe a8e4 e33d
000002c0: bc9b 44bd f4b6 a0be 021a 12bd 3c9b 143c
000002d0: 3d58 06be 7a3d fc3d 7d0f 6d3e 4017 4cbe
000002e0: c33b 873d 37cf 0bbe 6b98 6dbe 92ca 2b3e
000002f0: ae61 3ebe 9a71 b5bd ac6a 653e 14dd eb3d
00000300: f8aa b53d 07cd 083e 4d3b f8ba 57b7 81be
00000310: 0755 9bbe 15de 2d3d 695d 2fbe 25d0 133e
00000320: f125 973d 8004 febc 643a a13d a1e7 6b3e
00000330: f2af 61bc e204 d0bb 0343 46be 51b0 83bd
00000340: 37a6 0fbe 0afd b83d ff39 15be 8910 663e
00000350: 0e45 973d 8e22 b63e f2a0 29bd f8a2 2f3c
00000360: 5bb7 ce3d f427 b3bd e921 30bd 2a2d 253c
00000370: 9996 f03d a128 a5bd c70e 3f3d 4c75 b73c
00000380: 6264 9cbd 7ae0 6d3c 9ab4 b63d c094 913d
00000390: 0e58 f83c 06b5 203d 5c0a 0f3e 21a6 2f3d
000003a0: e786 263e 18b5 3b3d 92de 53be d24b 4f3d
000003b0: 1e73 ee3a e65a 203e d652 e4bd 1a82 c43b
000003c0: 24d6 363b 231b bf3d a42f 89bd 6f17 96bd
000003d0: 27fb 513d 0efa ccbd a235 a1bd a443 bcbd
000003e0: 75ca f83c 1c86 603e 9ae4 b73d 9172 eabb
000003f0: d206 99bd fc23 503e 72ae 14be 9915 223d

actor.2.bias f4 [64]
0.05052026 -0.03109079 -0.07597185 -0.051122382 -0.0823356 0.012222105 -0.23079215 0.11549431
-0.07034006 0.10137352 -0.009069439 0.08392776 -0.16225219 0.111800626 -0.07642773 -0.00023848399
-0.2765779 0.07625366 -0.29020062 0.17385669 0.025573965 0.106349036 -0.01873466 0.12863089
0.12789196 0.07225428 -0.041475896 0.04845621 0.06264472 0.07317731 0.043079544 0.1471847
-0.042296603 -0.07278556 0.075661704 -0.121331684 -0.0514539 -0.045701843 0.062065657 -0.03856972
-0.08559266 -0.013904485 -0.008944063 -0.06576686 0.040664136 -0.08777774 0.017093735 -0.17271203
-0.13329914 -0.012208181 -0.050481085 -0.046713516 -0.10887313 0.081053354 0.047358062 -0.06630742
0.028116819 0.19299686 -0.19622718 -0.15680158 -0.06470971 0.008864765 -0.0710065 0.0048595057
00000000: 55ee 4e3d 1db2 febc 2197 9bbd b465 51bd
00000010: 919f a8bd 393f 483c c754 6cbe 4888 ec3d
00000020: 730e 90bd ec9c cf3d fc97 14bc 51e2 ab3d
00000030: 7025 26be baf7 e43d 2486 9cbd 8f11 7ab9
00000040: 9e9b 8dbe e12a 9c3d 2d95 94be 7d07 323e
00000050: 7e80 d13c 86cd d93d 6e79 99bc d1b7 033e
00000060: 1cf6 023e 0dfa 933d a1e2 29bd 057a 463d
00000070: e04b 803d fcdd 953d 2d74 303d 96b7 163e
00000080: 343f 2dbd 9810 95bd 86f4 9a3d bf7c f8bd
00000090: 53c1 52bd db31 3bbd 8f38 7e3d 48fb 1dbd
000000a0: 344b afbd a3cf 63bc 1f8a 12bc c7b0 86bd
000000b0: 708f 263d d1c4 b3bd 2908 8c3c 6cdb 30be
000000c0: 927f 08be d304 48bc 41c5 4ebd ac56 3fbd
000000d0: e0f8 debd 4dff a53d 87fa 413d 2fcc 87bd
000000e0: 3e55 e63c f8a0 453e c7ef 48be 9890 20be
000000f0: 8686 84bd 853d 113c db6b 91bd 7d3c 9f3b

actor.4.weight f4 [4, 64]
0.038645897 -0.3005066 -0.016200954 -0.17132485 -0.036787838 0.5053446 -0.08209029 -0.25388
-0.26400885 0.29480228 0.023618558 0.12657592 0.10344251 -0.12913045 -0.19550253 0.15470572
-0.69622535 0.4665076 0.057903785 0.20315878 -0.08380247 0.05979325 -0.32670838 0.25042892
0.3949743 -0.045310207 0.002632517 0.3108636 0.15630902 0.18795389 -0.26262578 -0.2612139
-0.3892297 -0.14250326 -0.36481592 0.08182966 0.031660546 -0.04962711 0.08664168 -0.1533926
-0.48270616 -0.40871075 0.23411639 -0.15602088 -0.24726656 -0.23010023 0.5476381 -0.17509486
-0.15323518 0.024977656 -0.37635174 -0.20350745 0.32266617 0.14065914 -0.23800449 -0.1499201
0.050408974 -0.105527006 -0.21319161 -0.04186396 0.42027143 0.37097937 -0.21952239 0.013152879
0.5884455 -0.23405285 -0.17655052 0.01601134 0.072697654 -0.3463705 0.19573584 0.016654015
0.34349704 -0.17532969 0.120363034 -0.11646316 -0.33400068 -0.16274899 -0.106173374 0.25956517
0.25897694 -0.22328305 0.07518017 -0.4430984 0.3545948 0.32289505 -0.13439202 -0.19375595
0.28244245 0.34782457 0.28590932 0.29952097 0.0679367 -0.47636202 -0.18125322 -0.20704438
0.13161696 -0.02758678 0.19731955 -0.5383082 0.23123258 0.13491122 0.11395816 -0.17626846
0.019644788 -0.078248695 -0.32648468 0.14432344 -0.04504781 -0.13427162 -0.0009190932 -0.07167766
-0.03615065 -0.32659072 -0.040446654 -0.114472546 -0.0007718502 0.3879902 0.18966903 -0.24852324
-0.28732383 0.333684 0.108496636 -0.009061869 0.19608732 0.115408204 -0.686818 -0.46739846
-0.2474577 -0.18742515 -0.41919228 0.18766814 -0.24305843 0.2767423 0.40862083 0.37583926
-0.048425466 0.16285898 -0.3761831 0.03822543 0.23921081 -0.16513798 -0.03595563 0.015893584
-0.27667117 -0.20314907 -0.2667157 0.21624213 -0.012161667 0.119928375 -0.17910124 0.2694639
-0.32803136 -0.06585098 0.32470983 0.3578388 -0.017536696 -0.16724887 0.18156302 0.063457385
0.012111042 0.25535256 -0.3611024 -0.10308549 -0.014670824 0.18975253 -0.10287023 -0.17758548
0.14559023 0.13684839 0.27740324 0.420546 -0.1466124 -0.1591327 0.27954936 0.13519223
-0.38512948 -0.11596226 0.27874285 -0.6780663 -0.082205355 0.08154406 -0.50782686 -0.3913459
-0.36989748 0.014950858 0.30668318 0.39787474 -0.309884 -0.06306158 -0.16054958 -0.064477995
0.1390913 0.024932709 0.56682706 -0.35243854 -0.12229035 -0.04292296 -0.3603691 0.19357981
-0.2989847 -0.47345564 0.24675106 -0.5642795 -0.28563893 0.39324126 0.5248748 0.2955696
-0.18390708 -0.0015653195 -0.49111608 -0.16627559 -0.64340407 0.8626454 -0.08034381 0.035387088
0.10289364 0.5024857 -0.1762074 0.25138196 0.062404543 0.13632512 -0.24197495 0.44834986
-0.21699934 -0.19023682 0.30077446 -0.050399907 0.37328646 0.2620022 0.49353907 -0.1339993
-0.12815264 0.4863849 -0.07184262 0.19436933 0.0346565 -0.10690451 -0.341928 0.2095425
-0.30169368 -0.19999981 -0.31017292 -0.30099553 0.09465624 0.6593531 0.07036313 0.2045274
-0.44938195 0.4124422 0.08435363 -0.59203225 -0.28046364 -0.23294647 -0.04372106 -0.40286374
00000000: 294b 1e3d 00dc 99be ddb7 84bc c86f 2fbe
00000010: d8ae 16bd 445e 013f f41e a8bd 8ffc 81be
00000020: 2b2c 87be 53f0 963e b57b c13c 1e9d 013e
00000030: abd9 d33d c63a 04be d131 48be 2d6b 1e3e
00000040: d33b 32bf 16da ee3e 852c 6d3d db08 503e
00000050: a1a0 abbd c4e9 743d 5246 a7be 3838 803e
00000060: 123a ca3e 3297 39bd 4e86 2c3b 8429 9f3e
00000070: 790f 203e fc76 403e e376 86be d4bd 85be
00000080: 1e49 c7be 60ec 11be 27c9 babe 4f96 a73d
00000090: 7dae 013d cc45 4bbd 3171 b13d f312 1dbe
000000a0: 4325 f7be 8942 d1be 35bc 6f3e f0c3 1fbe
000000b0: 7233 7dbe 659f 6bbe 0332 0c3f 114c 33be
000000c0: afe9 1cbe f19d cc3c 2db1 c0be 4264 50be
000000d0: 8034 a53e f308 103e 73b7 73be a884 19be
000000e0: a479 4e3d 8b1e d8bd e74e 5abe 8b79 2bbd
000000f0: d12d d73e 02f1 bd3e 7aca 60be 2c7f 573c
00000100: 5da4 163f 8dab 6fbe a9c9 34be 372a 833c
00000110: 82e2 943d 7957 b1be fa6e 483e 006e 883c
00000120: d8de af3e a089 33be e580 f63d 3d84 eebd
00000130: 2302 abbe aca7 26be 6d71 d9bd bae5 843e
00000140: a098 843e 50a4 64be 10f8 993d cbdd e2be
00000150: 738d b53e 8052 a53e 109e 09be f667 46be
00000160: 4c9c 903e 1016 b23e b562 923e d05a 993e
00000170: 6622 8b3d b9e5 f3be 729a 39be 7103 54be
00000180: 99c6 063e acfd e1bc 230e 4a3e 91ce 09bf
00000190: 3cc8 6c3e 2b26 0a3e e562 e93d b87f 34be
000001a0: 1bee a03c da40 a0bd 0029 a7be 86c9 133e
000001b0: 0d84 38bd 807e 09be 4def 70ba bdcb 92bd
000001c0: b412 14bd e636 a7be 64ab 25bd 9570 eabd
000001d0: fd55 4aba a7a6 c63e 9938 423e e07c 7ebe
000001e0: 1c1c 93be a1d8 aa3e 7c33 de3d 3c78 14bc
000001f0: 1dcb 483e 235b ec3d 4ed3 2fbf da4e efbe
00000200: 8d65 7dbe 61ec 3fbe 5fa0 d6be 142c 403e
00000210: 4fe4 78be 2bb1 8d3e c036 d13e 016e c03e
00000220: c859 46bd 81c4 263e 129b c0be 4592 1c3d
00000230: aef3 743e ee19 29be 3646 13bd 4333 823c
00000240: d8a7 8dbe 4f06 50be f68e 88be 946e 5d3e
00000250: bb41 47bc 029d f53d 5166 37be 2cf7 893e
00000260: baf3 a7be e1dc 86bd 5e40 a63e a636 b73e
00000270: 1ea9 8fbc 4a43 2bbe a8eb 393e f2f5 813d
00000280: 646d 463c 92bd 823e 6ae2 b8be 7c1e d3bd
00000290: e55d 70bc 7d4e 423e a1ad d2bd f8d8 35be
000002a0: 9b15 153e fc21 0c3e cc07 8e3e ce51 d73e
000002b0: 9021 16be aff3 22be 1821 8f3e d56f 0a3e
000002c0: b12f c5be 9f7d edbd 62b7 8e3e c195 2dbf
000002d0: 485b a8bd 9200 a73d f100 02bf 7d5e c8be
000002e0: 3463 bdbe 72f4 743c 9405 9d3e 3db6 cb3e
000002f0: 1ea9 9ebe 6e26 81bd 1c67 24be 0a0d 84bd
00000300: f36d 0e3e ae3f cc3c 941b 113f d372 b4be
00000310: 5d73 fabd fccf 2fbd 4c82 b8be c939 463e
00000320: 8614 99be c768 f2be 4fac 7c3e 9f74 10bf
00000330: 443f 92be eb56 c93e 325e 063f e654 973e
00000340: 2352 3cbe 682b cdba 9173 fbbe 2644 2abe
00000350: 21b6 24bf 54d6 5c3f 4c8b a4bd 0df2 103d
00000360: e7b9 d23d e7a2 003f b66f 34be 23b5 803e
00000370: e89b 7f3d d098 0b3e 48c8 77be 1d8e e53e
00000380: 1335 5ebe 71cd 42be 1cff 993e 2270 4ebd
00000390: 671f bf3e 2725 863e 27b1 fc3e 1d37 09be
000003a0: 723a 03be 7107 f93e 3922 93bd c108 473e
000003b0: f9f3 0d3d c0f0 dabd 3011 afbe 4f92 563e
000003c0: 9877 9abe c0cc 4cbe fcce 9ebe 161c 9abe
000003d0: 21db c13d 5dcb 283f 8b1a 903d a16f 513e
000003e0: 6415 e6be a02b d33e 99c1 ac3d 6d8f 17bf
000003f0: ee98 8fbe 8589 6ebe db14 33bd 2844 cebe

actor.4.bias f4 [4]
0.04620435 -0.008580372 -0.07803247 0.108920746
00000000: c640 3d3d b094 0cbc 7dcf 9fbd d711 df3d

critic.0.weight f4 [64, 24]
-1.2312934 -4.2911773 1.1586396 -2.216608 -0.43585312 -0.48955455 -0.1365122 0.016005762
0.44331262 -1.3979522 -0.0403781 -0.29188678 -0.00582543 -0.10552332 -0.42706844 -0.2532021
-0.3529362 -0.26248693 -0.314122 -0.46695426 -0.15122743 0.14246807 0.7449685 0.11502221
-1.2840505 2.255603 -0.1381697 0.6366513 -0.16000146 0.080701366 0.28177622 0.21684855
0.28803864 -0.7026221 0.9761439 1.1480801 0.02248474 0.0042501776 -1.0414231 -0.692002
-0.76768285 -0.6231051 -0.4696546 -0.20354846 -0.2380559 -0.106351376 0.3705975 -0.13298438
-0.5561956 -1.5035853 0.51880306 -3.1288507 -0.27335957 -0.23220108 0.67311174 -0.0280485
1.2137741 -0.4870182 0.55536544 0.05868829 -0.099126995 -0.27846873 0.54348016 0.38118076
0.5450689 0.3932272 0.5186992 0.4546226 0.15344983 0.20381097 0.41303098 0.68919384
0.8023521 1.7352165 1.2799801 -2.1072035 0.4926365 -1.407563 0.259244 -0.18779232
0.65832716 -0.38048962 0.8812043 0.54170763 -0.5856549 0.5094138 -0.17029294 -0.16597399
0.13344449 0.14291535 -0.064005926 -0.109336615 -0.1780151 0.3960445 0.39467496 -0.302929
0.14817387 1.2372189 0.6559908 -2.388189 0.146465 0.27913672 -0.080871716 -0.62783855
-0.56909007 0.3554944 0.8303553 -0.07427898 -0.1238789 0.070997104 0.37905338 0.18610688
0.2978256 0.32048452 0.25564146 0.090542346 -0.2507953 -0.657455 -0.43506664 0.25870007
0.48459136 -3.2249122 0.97084886 2.4397042 0.12043355 -0.4375652 -0.05361966 -0.025973896
-0.25064144 1.0479718 0.6081261 0.672457 0.7001089 0.6646779 -0.18486503 0.115924105
0.12429407 -0.17379959 -0.16780736 0.15412758 0.16350895 -0.11477812 -0.13162549 -0.6494607
0.9869129 -1.4331633 0.084887214 -2.9819756 -0.031191928 -0.29284236 0.37159055 -0.42237017
0.55542153 0.4325028 -0.9339683 -1.5042807 0.44490755 0.23767433 0.7243956 0.47570592
0.3873719 0.47966918 0.2115282 0.36269084 0.2794936 0.62324876 0.038380474 -0.09119575
1.4000049 -2.088891 0.35431716 1.7877414 -0.11533228 0.29763734 0.57048523 -0.06483146
-0.2731359 0.3217202 -0.030783808 0.26990163 0.16719145 -0.29755637 0.04220832 0.11775295
-0.00198049 0.21824448 0.009035334 0.087363236 0.22973938 0.41263208 -0.0061102402 -1.1250647
0.93261456 -4.091874 -0.88635355 2.5461314 0.23756084 -0.5069716 -0.28899547 0.2091624
-0.09448394 -0.009994341 -0.4012062 0.63193774 -0.32726914 0.11884373 0.8792547 0.52531457
0.67969936 0.29743734 0.56333464 0.24343319 0.2513919 0.16333817 -0.49472934 -0.9036165
-0.59351677 -6.7444086 0.21593238 1.4603556 -0.36201686 -0.14902794 -0.17317906 -0.09562889
-0.07052024 0.018662317 -0.080204725 -0.19052657 -0.23600493 0.08490576 0.5749953 0.54866636
0.6178872 0.38596952 0.46139818 0.14446808 0.28077844 -0.08989408 -0.6911359 -0.5636589
-0.30844623 0.04539758 -1.7581356 0.9752597 -0.41575992 -0.05140155 -0.3984732 -0.07635841
-0.021288306 -0.079694614 0.36341858 -0.1311444 0.39102304 -0.21568154 -0.5003541 -0.49929428
00000000: 069b 9dbf 5351 89c0 4d4e 943f e8dc 0dc0
00000010: 2428 dfbe e5a6 fabe dbc9 0bbe 841e 833c
00000020: dff9 e23e 19f0 b2bf 8263 25bd 2f72 95be
00000030: 40e3 bebb 9c1c d8bd b7a8 dabe b5a3 81be
00000040: 0eb4 b4be b064 86be 99d4 a0be a114 efbe
00000050: 5ddb 1abe 26e3 113e 41b6 3e3f c490 eb3d
00000060: c45b a4bf cd5b 1040 5c7c 0dbe 94fb 223f
00000070: 6cd7 23be c246 a53d f944 903e 8c0d 5e3e
00000080: cd79 933e 0bdf 33bf 91e4 793f 4af4 923f
00000090: eb31 b83c 1345 8b3b 5a4d 85bf 0b27 31bf
000000a0: dd86 44bf d183 1fbf 9176 f0be 026f 50be
000000b0: edc4 73be c0ce d9bd f5be bd3e 0f2d 08be
000000c0: d662 0ebf 7c75 c0bf 47d0 043f 173f 48c0
000000d0: c9f5 8bbe 1fc6 6dbe 0d51 2c3f f8c5 e5bc
000000e0: f35c 9b3f 735a f9be 6e2c 0e3f 2263 703d
000000f0: 1803 cbbd 7493 8ebe 8421 0b3f 202a c33e
00000100: a389 0b3f 1355 c93e 79c9 043f 4bc4 e83e
00000110: f421 1d3e d3b3 503e cc78 d33e 026f 303f
00000120: f266 4d3f 931b de3f 63d6 a33f 6cdc 06c0
00000130: da3a fc3e 062b b4bf a1bb 843e a14c 40be
00000140: 2188 283f 89cf c2be 9b96 613f 5aad 0a3f
00000150: 7bed 15bf f168 023f 4661 2ebe 16f5 29be
00000160: aca5 083e 6758 123e 8a15 83bd e0eb dfbd
00000170: 9749 36be 58c6 ca3e d612 ca3e 8319 9bbe
00000180: e4ba 173e 305d 9e3f 03ef 273f 17d8 18c0
00000190: ecfa 153e 02eb 8e3e 12a0 a5bd 07ba 20bf
000001a0: e3af 11bf 5d03 b63e 2a92 543f 941f 98bd
000001b0: 39b4 fdbd ee66 913d 4913 c23e cd92 3e3e
000001c0: 997c 983e 8c16 a43e 70e3 823e 446e b93d
000001d0: 3e68 80be f94e 28bf 0ec1 debe 5674 843e
000001e0: 5c1c f83e f664 4ec0 8d89 783f 1d24 1c40
000001f0: dda5 f63d 8c08 e0be 4aa0 5bbd 35c7 d4bc
00000200: 1354 80be f123 863f 27ae 1b3f 2426 2c3f
00000210: 563a 333f 5528 2a3f 424d 3dbe 9e69 ed3d
00000220: e48d fe3d 85f8 31be b1d5 2bbe 9fd3 1d3e
00000230: e46e 273e ca10 ebbd d5c8 06be 0e43 26bf
00000240: 53a6 7c3f e571 b7bf 59d9 ad3d b0d8 3ec0
00000250: 3786 ffbc 6fef 95be 1e41 be3e e740 d8be
00000260: 1b30 0e3f 0271 dd3e 8c18 6fbf 458c c0bf
00000270: ecca e33e e660 733e fd71 393f ba8f f33e
00000280: 9c55 c63e 3397 f53e d99a 583e 9db2 b93e
00000290: c919 8f3e 3b8d 1f3f d834 1d3d d6c4 babd
000002a0: 5c33 b33f 64b0 05c0 0f69 b53e b6d4 e43f
000002b0: 5533 ecbd ec63 983e 520b 123f 5bc6 84bd
000002c0: 78d8 8bbe 83b8 a43e 532e fcbc 8c30 8a3e
000002d0: 3c34 2b3e 4f59 98be a2e2 2c3d 7528 f13d
000002e0: 1ccb 01bb 7b7b 5f3e f008 143c 7feb b23d
000002f0: cd40 6b3e 8344 d33e 6938 c8bb 1f02 90bf
00000300: d4bf 6e3f a2f0 82c0 11e8 62bf d1f3 2240
00000310: 2643 733e e4c8 01bf 37f7 93be ab2e 563e
00000320: cc80 c1bd 4ebf 23bc e66a cdbe acc6 213f
00000330: d28f a7be 5764 f33d d616 613f 047b 063f
00000340: c700 2e3f b549 983e b336 103f 8d46 793e
00000350: 70b6 803e 1f42 273e 2a4d fdbe 6953 67bf
00000360: b7f0 17bf 32d2 d7c0 611d 5d3e efec ba3f
00000370: 465a b9be c89a 18be da55 31be 14d9 c3bd
00000380: ea6c 90bd b7e1 983c 6042 a4bd 6619 43be
00000390: 47ab 71be 12e3 ad3d e432 133f 6675 0c3f
000003a0: db2d 1e3f cc9d c53e 623c ec3e 71ef 133e
000003b0: 31c2 8f3e 631a b8bd 48ee 30bf f34b 10bf
000003c0: aaec 9dbe d0f2 393d 960a e1bf 9faa 793f
000003d0: 7cde d4be 6f8a 52bd ae04 ccbe cc61 9cbd
000003e0: d064 aebc ee36 a3bd 0012 ba3e b84a 06be
000003f0: 2c34 c83e 9fdb 5cbe 3517 00bf 80a3 ffbe

critic.0.bias f4 [64]
-0.07908056 -0.1197252 0.43409798 -0.5991032 0.25060222 -0.81775576 0.27248088 -1.0198269
-0.75988865 -0.35988817 -0.47601902 -0.665669 -0.734909 -1.3505423 -0.5948705 0.5768422
-0.20394643 -0.16598247 -1.0452514 -0.5040622 0.568483 -0.8326424 -0.8845045 0.448552
0.5114309 0.55589426 0.2454203 1.0035436 0.19292076 -0.3116497 -0.75621486 -0.97272927
1.2205522 0.6417294 0.22691853 -0.5403704 -0.22171076 0.6123004 -0.22844203 0.102937035
-0.6082832 0.62084633 0.5608717 -0.44299147 0.5143209 -0.20593545 -0.14816041 0.13366893
-0.5572369 -0.17166036 -0.4241296 -0.6925898 0.72154015 -0.6323726 0.35839948 0.269414
-0.6388912 -0.65811443 -0.09594061 0.2998503 -0.3378364 0.7402316 0.19009934 -1.215762
00000000: fdf4 a1bd 7c32 f5bd 1742 de3e d45e 19bf
00000010: ef4e 803e 7158 51bf 9d82 8b3e b089 82bf
00000020: 1088 42bf 4343 b8be c4b8 f3be 4969 2abf
00000030: ff22 3cbf 92de acbf 6f49 18bf eeab 133f
00000040: 55d7 50be 4ff7 29be ccca 85bf 380a 01bf
00000050: 1a88 113f 0d28 55bf e36e 62bf 9ca8 e53e
00000060: 23ed 023f 164f 0e3f 764f 7b3e 1e74 803f
00000070: 058d 453e 8d90 9fbe 4c97 41bf c904 79bf
00000080: 0e3b 9c3f 6148 243f 555d 683e b755 0abf
00000090: 2508 63be b8bf 1c3f b5ec 69be a7d0 d23d
000000a0: 73b8 1bbf c9ef 1e3f 4a95 0f3f c7cf e2be
000000b0: 89aa 033f bee0 52be 5db7 17be 82e0 083e
000000c0: 14a7 0ebf bcc7 2fbe 8427 d9be 914d 31bf
000000d0: dbb6 383f 2ce3 21bf 2380 b73e a2f0 893e
000000e0: 608e 23bf 307a 28bf 837c c4bd fb85 993e
000000f0: e5f8 acbe d17f 3d3f 67a9 423e 179e 9bbf

critic.2.weight f4 [64, 64]
-0.41688725 0.23108804 -0.4346682 0.13074192 -0.09049717 0.4774251 -0.07358981 0.014192873
0.60454303 0.42767555 0.19339374 -0.1381227 0.028398464 0.37709045 0.26652345 0.24051261
-0.17593977 0.5618466 0.2552925 0.37403122 -0.24735096 0.27748603 0.78648955 -0.62353885
-0.099846184 0.5566765 0.1328955 -0.6524698 -1.0448841 -0.019352295 0.6799841 0.32065377
-0.28968787 0.567244 0.8024747 0.2851969 0.11771713 -0.050924946 -0.04904355 -0.09193167
0.053825736 -1.3321285 -0.220615 -0.084183805 0.5619526 -0.11976289 -0.11215284 0.1638766
0.75679183 -0.25412682 -0.02660309 0.6423855 0.019788582 0.09210969 -0.33651677 -0.06501303
0.25938025 0.025859052 0.9138864 0.47178435 -0.05771195 -0.08867836 0.25464538 0.20474578
0.15147045 -0.21244502 0.02200262 -0.36072522 0.017694661 -0.46199483 0.21169898 -1.0281109
-0.8419594 -0.69488984 -0.5113065 0.004250827 -0.3648173 -0.29214907 -0.18990566 -0.39139003
0.30132076 -0.38717982 -0.26936433 -0.2788006 -0.495705 -0.121055655 -0.84514177 0.41690564
0.17484216 0.21598566 -0.3215976 0.054730166 0.20293145 -0.55410737 -0.09387049 -0.09490976
0.2765432 -0.014818537 0.4239897 -0.023370646 -0.7592259 -0.098595165 -0.1244658 -0.55449843
-0.33668932 0.7342093 0.04319134 -0.20509817 -0.5238736 -0.14874119 0.276008 -0.797314
-0.20057704 0.57761115 -0.15467879 0.16907413 0.7972346 0.30496898 0.5320063 -0.08126447
0.017138476 -0.15757221 -0.36510694 0.5139311 -0.3260065 -0.29670796 0.013066189 -0.20793377
0.41392705 0.6418149 0.012267458 -0.28162503 0.40744486 0.45978203 0.10182514 -0.36888754
-0.9858979 -1.0837685 0.15944158 -1.6436232 -0.0152851585 -0.7802583 0.34131205 0.93041986
0.14152338 -0.47469375 -0.45989382 -0.42309934 0.7538852 0.056225263 -0.4480886 0.85520864
0.23829108 -0.18570372 0.2108457 0.2546186 0.28393203 0.41373205 0.34787992 -0.52838075
0.082849205 0.39084744 -0.29116884 -1.4345989 0.30161774 -0.80201936 0.91719353 -0.12016216
-0.28255582 0.9170042 -0.44252694 -1.4302951 0.17773238 0.5254423 -0.37374786 -0.2213319
-0.024817823 0.9772065 -0.009774156 -0.9345704 0.4758521 -0.07314638 0.41257507 -0.27897474
-0.18758559 -1.2182361 -0.07180335 -0.7609263 -0.049613763 0.14010403 0.6073702 -0.497105
0.12460082 -0.21182314 0.045180928 -0.20255315 -0.3098783 -0.48263183 0.40812188 -0.6159399
-0.30460197 0.20269987 0.08352378 -0.56168985 -0.9643664 -0.28365374 -0.10068498 0.56323504
-0.3353754 -0.1797846 -0.8171157 -0.38948247 -0.07903444 -0.6735627 -0.24308944 0.48365185
-0.3357912 0.2729893 0.046844423 0.46964052 0.3560723 -0.66115004 -0.2256589 -0.35480252
0.406417 0.12831755 0.21967453 0.23660256 0.39825654 0.6362804 -0.5444617 0.096307725
-0.5033554 0.28871155 -0.16950904 0.019183539 0.2421069 0.07043625 -0.3175251 0.40998673
-0.25014794 -0.15479551 -0.3122163 0.006572265 0.25270632 -0.24582818 -0.24798757 -0.019613782
-0.16959478 -0.46202636 -0.8361917 0.8554707 -0.113788374 0.6573065 0.49807236 -0.26178002
00000000: 3f72 d5be 58a2 6c3e d58c debe 36e1 053e
00000010: 9556 b9bd 1071 f43e 41b6 96bd 3989 683c
00000020: 55c3 1a3f 4af8 da3e 0209 463e 0970 0dbe
00000030: e5a3 e83c 0012 c13e c375 883e f048 763e
00000040: 8e29 34be 2ed5 0f3f b3b5 823e 0581 bf3e
00000050: 9249 7dbe a612 8e3e 6157 493f 3ea0 1fbf
00000060: 287c ccbd 5a82 0e3f c215 083e 4308 27bf
00000070: c3be 85bf b488 9ebc 7013 2e3f bb2c a43e
00000080: f851 94be e736 113f fb6e 4d3f 5405 923e
00000090: ae15 f13d ad96 50bd e4e1 48bd ac46 bcbd
000000a0: 6078 5c3d 3083 aabf e6e8 61be 8f68 acbd
000000b0: 20dc 0f3f 3f46 f5bd 63b0 e5bd 44cf 273e
000000c0: 1cbd 413f e91c 82be b9ee d9bc 6073 243f
000000d0: aa1b a23c 01a4 bc3d ed4b acbe 8d25 85bd
000000e0: 7dcd 843e 5dd6 d33c 76f4 693f b88d f13e
000000f0: 5e63 6cbd 009d b5bd e160 823e e1a8 513e
00000100: 121b 1b3e 308b 59be d73e b43c fab0 b8be
00000110: 65f4 903c 968a ecbe 9ec7 583e 2399 83bf
00000120: a78a 57bf 4de4 31bf fce4 02bf 854a 8b3b
00000130: 55c9 babe 9094 95be a176 42be 4664 c8be
00000140: b746 9a3e 6f3c c6be 1fea 89be f4be 8ebe
00000150: 0ccd fdbe 07ec f7bd 365b 58bf a874 d53e
00000160: d309 333e 582b 5d3e 71a8 a4be bd2c 603d
00000170: 43cd 4f3e fbd9 0dbf 2c3f c0bd 0c60 c2bd
00000180: 1297 8d3e 73c9 72bc 2e15 d93e cc73 bfbc
00000190: a15c 42bf 43ec c9bd ede7 febd 9cf3 0dbf
000001a0: 8b62 acbe 24f5 3b3f 67e9 303d 4105 52be
000001b0: 951c 06bf 9c4f 18be ec50 8d3e c51c 4cbf
000001c0: 1164 4dbe 53de 133f 1e64 1ebe c521 2d3e
000001d0: 9117 4c3f e524 9c3e 9131 083f fd6d a6bd
000001e0: fd65 8c3c 9c5a 21be 4cef babe fd90 033f
000001f0: 53ea a6be 1bea 97be 9213 563c 97ec 54be
00000200: 3fee d33e fb4d 243f 73fd 483c 2831 90be
00000210: 9d9c d03e 8d68 eb3e b389 d03d d4de bcbe
00000220: ce63 7cbf edb8 8abf a744 233e 3f62 d2bf
00000230: 9a6e 7abc 02bf 47bf 74c0 ae3e ff2f 6e3f
00000240: 81eb 103e 0f0b f3be 3477 ebbe 7aa0 d8be
00000250: 9ffe 403f 764c 663d de6b e5be f4ee 5a3f
00000260: 9402 743e 1e29 3ebe efe7 573e 5e5d 823e
00000270: 8a5f 913e b0d4 d33e 511d b23e f643 07bf
00000280: d8ac a93d 281d c83e 1514 95be f0a0 b7bf
00000290: a46d 9a3e 2451 4dbf 32cd 6a3f 9417 f6bd
000002a0: 28ab 90be cac0 6a3f e492 e2be e913 b7bf
000002b0: 7aff 353e 6383 063f e15b bfbe d4a4 62be
000002c0: bf4e cbbc 352a 7a3f c823 20bc 0140 6fbf
000002d0: e3a2 f33e c5cd 95bd 0a3d d33e c7d5 8ebe
000002e0: 7016 40be 29ef 9bbf a20d 93bd 11cc 42bf
000002f0: cd37 4bbd 6e77 0f3e 9d7c 1b3f 8c84 febe
00000300: b72e ff3d 2ae8 58be a30f 393d 186a 4fbe
00000310: 5ea8 9ebe 851b f7be 5af5 d03e 3dae 1dbf
00000320: caf4 9bbe 8e90 4f3e 840e ab3d e8ca 0fbf
00000330: b7e0 76bf 103b 91be ed33 cebd 2c30 103f
00000340: 53b6 abbe 7419 38be 7f2e 51bf 3f6a c7be
00000350: cfdc a1bd 9b6e 2cbf 70ec 78be 37a1 f73e
00000360: d3ec abbe 41c5 8b3e f0df 3f3d b974 f03e
00000370: 1c4f b63e 2141 29bf 2013 67be ada8 b5be
00000380: e415 d03e ad65 033e 5cf2 603e f147 723e
00000390: 48e8 cb3e 46e3 223f d861 0bbf fc3c c53d
000003a0: e6db 00bf 00d2 933e c793 2dbe cc26 9d3c
000003b0: dfea 773e e140 903d a692 a2be c8e9 d13e
000003c0: 6413 80be b782 1ebe d1da 9fbe 285c d73b
000003d0: b962 813e 62ba 7bbe 74f0 7dbe 15ad a0bc
000003e0: 41aa 2dbe b88e ecbe a910 56bf 2100 5b3f
000003f0: e109 e9bd 3d45 283f 5703 ff3e 0808 86be

critic.2.bias f4 [64]
-0.18097343 0.26922306 0.46403113 0.2993146 -0.21630996 -0.51042163 0.37042066 -0.3925745
-0.075181 -0.40893874 -0.37209204 -0.270473 0.53512764 -0.04042188 -0.54906315 -0.20040594
-0.560811 0.28724647 0.3460741 0.0005085464 0.15185489 -0.5691613 0.18292336 -0.009158542
-0.46838164 0.22574975 0.0518529 0.46925718 -0.33286667 -0.28805825 -0.19597478 0.14852402
0.38753402 -0.39323685 0.45532814 0.25544623 -0.48726362 0.02003471 -0.10650712 -0.07298861
-0.07564444 -0.23993167 0.10253759 0.4131333 -0.19363713 -0.24288608 -0.22964826 0.44054198
0.19985892 -0.25786573 -0.11194629 -0.29440564 0.26315445 0.49988428 -0.57531047 0.1343037
-0.00019942845 0.13005291 -0.23155078 -0.40890977 -0.041556112 -0.031887792 -0.04255774 -0.442316
00000000: 1951 39be 9bd7 893e 7d95 ed3e c33f 993e
00000010: 5c80 5dbe feaa 02bf c7a7 bd3e 86ff c8be
00000020: 7ff8 99bd 6b60 d1be d982 bebe 707b 8abe
00000030: 20fe 083f 6a91 25bd 678f 0cbf 3737 4dbe
00000040: 4f91 0fbf f811 933e a030 b13e f94f 053a
00000050: d97f 1b3e 8eb4 11bf 4350 3b3e b60d 16bc
00000060: b8cf efbe f12a 673e b563 543d 7a42 f03e
00000070: 806d aabe 5f7c 93be 9dad 48be ae16 183e
00000080: dc6a c63e 5756 c9be c520 e93e d9c9 823e
00000090: 9e7a f9be d51f a43c 6820 dabd 0d7b 95bd
000000a0: 79eb 9abd a6b0 75be 3aff d13d 3586 d33e
000000b0: d048 46be 21b7 78be ea28 6bbe b88e e13e
000000c0: d1a7 4c3e fa06 84be 1944 e5bd 56bc 96be
000000d0: 2ebc 863e d5f0 ff3e 8c47 13bf e986 093e
000000e0: ab1d 51b9 972c 053e a61b 6dbe 9f5c d1be
000000f0: be36 2abd c69c 02bd 0651 2ebd 3e77 e2be

critic.4.weight f4 [1, 64]
-0.402995 -0.27348194 0.59317464 -0.6504878 0.18690144 0.2852475 0.7429264 0.02876146
-0.13774343 0.5002287 0.41486415 0.26291665 -0.25640702 -0.20795381 0.122153476 0.1256319
0.34398004 -0.15110514 -0.10585182 -0.564117 -0.15327944 0.13232121 0.61555356 0.7047961
0.1873693 -0.44580188 -0.26943815 -0.26765355 0.44126296 0.48710135 -0.25287178 0.73542273
-0.17388782 0.44930738 -0.16602473 0.27243382 0.7749582 -0.3147196 -0.77850866 -0.2655781
0.33687636 0.23631853 -0.7372425 -0.09488204 0.81202835 0.21811341 -0.340584 -0.1863853
-0.08556028 0.24893564 0.284008 0.21097967 0.3746938 0.59209925 0.26281154 1.0383651
0.45278612 -0.15522455 -0.20877571 0.1642665 0.4631291 0.5084664 0.2518937 -0.2405377
00000000: 5c55 cebe d305 8cbe 4bda 173f 5e86 26bf
00000010: 1763 3f3e f60b 923e 6d30 3e3f 279d eb3c
00000020: 9d0c 0dbe fd0e 003f 1369 d43e 039d 863e
00000030: c847 83be d8f1 54be 9a2b fa3d a6a5 003e
00000040: 271e b03e 4ebb 1abe d7c8 d8bd f969 10bf
00000050: 49f5 1cbe 367f 073e eb94 1d3f 846d 343f
00000060: bddd 3f3e 2540 e4be ccf3 89be e309 89be
00000070: 38ed e13e 5965 f93e 6978 81be aa44 3c3f
00000080: a60f 32be 9e0b e63e 6302 2abe 727c 8b3e
00000090: a963 463f ed22 a1be 584c 47bf daf9 87be
000000a0: 0f7b ac3e 7cfd 713e edbb 3cbf 8451 c2bd
000000b0: 17e1 4f3f 1f59 5f3e 0761 aebe cadb 3ebe
000000c0: 3a3a afbd fce8 7e3e 7f69 913e 0e0b 583e
000000d0: ded7 bf3e d193 173f 3c8f 863e 26e9 843f
000000e0: 95d3 e73e 2ff3 1ebe 4dc9 55be 7a35 283e
000000f0: 421f ed3e db2a 023f 36f8 803e 844f 76be
